Sequential(
  (0): Linear(in_features=6, out_features=54, bias=True)
  (1): ReLU()
  (2): Linear(in_features=54, out_features=54, bias=True)
  (3): ReLU()
  (4): Linear(in_features=54, out_features=2, bias=True)
)
lr =   0.00010000, weight_decay =   0.00010000
DiagonalRobustScaler_epoch_100_batchsize_32_L1Loss()_lr_0.0001_weightdecay_0.0001
epoch 1, train loss 0.00393235, test loss 0.00141800, time 18.9 sec
epoch 2, train loss 0.00095364, test loss 0.00091265, time 19.5 sec
epoch 3, train loss 0.00076519, test loss 0.00069275, time 19.3 sec
epoch 4, train loss 0.00068225, test loss 0.00063227, time 19.5 sec
epoch 5, train loss 0.00063689, test loss 0.00060173, time 19.9 sec
Sequential(
  (0): Linear(in_features=6, out_features=54, bias=True)
  (1): ReLU()
  (2): Linear(in_features=54, out_features=54, bias=True)
  (3): ReLU()
  (4): Linear(in_features=54, out_features=2, bias=True)
)
lr =   0.00010000, weight_decay =   0.00010000
Diagonal_RobustScaler_epoch_100_batchsize_32_L1Loss()_lr_0.0001_weightdecay_0.0001
epoch 1, train loss 0.00393235, test loss 0.00141800, time 20.2 sec
Sequential(
  (0): Linear(in_features=18, out_features=252, bias=True)
  (1): ReLU()
  (2): Linear(in_features=252, out_features=252, bias=True)
  (3): ReLU()
  (4): Linear(in_features=252, out_features=2, bias=True)
)
lr =   0.00010000, weight_decay =   0.00010000
off-Diagonal_RobustScaler_epoch_100_batchsize_32_L1Loss()_lr_0.0001_weightdecay_0.0001
epoch 1, train loss 1.00856592, test loss 0.78504095, time 51.0 sec
Sequential(
  (0): Linear(in_features=6, out_features=54, bias=True)
  (1): ReLU()
  (2): Linear(in_features=54, out_features=54, bias=True)
  (3): ReLU()
  (4): Linear(in_features=54, out_features=2, bias=True)
)
lr =   0.00010000, weight_decay =   0.00010000
Diagonal_RobustScaler_epoch_100_batchsize_32_L1Loss()_lr_0.0001_weightdecay_0.0001
epoch 1, train loss 0.00393235, test loss 0.00141800, time 19.9 sec
epoch 2, train loss 0.00095364, test loss 0.00091265, time 19.9 sec
epoch 3, train loss 0.00076519, test loss 0.00069275, time 20.0 sec
epoch 4, train loss 0.00068225, test loss 0.00063227, time 19.9 sec
…
